Files already downloaded and verified
VGG_tensor_LP_scale(
  (features): Sequential(
    (0): Conv2d(3, 64, kernel_size=(3, 3), stride=(1, 1), padding=(1, 1))
    (1): BatchNorm2d(64, eps=1e-05, momentum=0.1, affine=True, track_running_stats=True)
    (2): ReLU(inplace=True)
    (3): ScaleLayer()
    (4): Q_conv2d()
    (5): BatchNorm2d(64, eps=1e-05, momentum=0.1, affine=True, track_running_stats=True)
    (6): ReLU(inplace=True)
    (7): ScaleLayer()
    (8): MaxPool2d(kernel_size=2, stride=2, padding=0, dilation=1, ceil_mode=False)
    (9): Q_conv2d()
    (10): BatchNorm2d(128, eps=1e-05, momentum=0.1, affine=True, track_running_stats=True)
    (11): ReLU(inplace=True)
    (12): ScaleLayer()
    (13): Q_conv2d()
    (14): BatchNorm2d(128, eps=1e-05, momentum=0.1, affine=True, track_running_stats=True)
    (15): ReLU(inplace=True)
    (16): ScaleLayer()
    (17): MaxPool2d(kernel_size=2, stride=2, padding=0, dilation=1, ceil_mode=False)
    (18): Q_conv2d()
    (19): BatchNorm2d(256, eps=1e-05, momentum=0.1, affine=True, track_running_stats=True)
    (20): ReLU(inplace=True)
    (21): ScaleLayer()
    (22): Q_conv2d()
    (23): BatchNorm2d(256, eps=1e-05, momentum=0.1, affine=True, track_running_stats=True)
    (24): ReLU(inplace=True)
    (25): ScaleLayer()
    (26): Q_conv2d()
    (27): BatchNorm2d(256, eps=1e-05, momentum=0.1, affine=True, track_running_stats=True)
    (28): ReLU(inplace=True)
    (29): ScaleLayer()
    (30): MaxPool2d(kernel_size=2, stride=2, padding=0, dilation=1, ceil_mode=False)
    (31): Q_conv2d()
    (32): BatchNorm2d(512, eps=1e-05, momentum=0.1, affine=True, track_running_stats=True)
    (33): ReLU(inplace=True)
    (34): ScaleLayer()
    (35): Q_conv2d()
    (36): BatchNorm2d(512, eps=1e-05, momentum=0.1, affine=True, track_running_stats=True)
    (37): ReLU(inplace=True)
    (38): ScaleLayer()
    (39): Q_conv2d()
    (40): BatchNorm2d(512, eps=1e-05, momentum=0.1, affine=True, track_running_stats=True)
    (41): ReLU(inplace=True)
    (42): ScaleLayer()
    (43): MaxPool2d(kernel_size=2, stride=2, padding=0, dilation=1, ceil_mode=False)
    (44): Q_conv2d()
    (45): BatchNorm2d(512, eps=1e-05, momentum=0.1, affine=True, track_running_stats=True)
    (46): ReLU(inplace=True)
    (47): ScaleLayer()
    (48): Q_conv2d()
    (49): BatchNorm2d(512, eps=1e-05, momentum=0.1, affine=True, track_running_stats=True)
    (50): ReLU(inplace=True)
    (51): ScaleLayer()
    (52): Q_conv2d()
    (53): BatchNorm2d(512, eps=1e-05, momentum=0.1, affine=True, track_running_stats=True)
    (54): ReLU(inplace=True)
    (55): ScaleLayer()
    (56): MaxPool2d(kernel_size=2, stride=2, padding=0, dilation=1, ceil_mode=False)
  )
  (fc1): Q_TensorizedLinear(
    in_features=512, out_features=512, bias=True
    (tensor): TensorTrainMatrix(
      (trainable_variables): ParameterList(
          (0): Parameter containing: [torch.cuda.FloatTensor of size 1x4x4x5 (GPU 0)]
…
